lenet5_models/model_float.tflite (tflite, 250148 bytes, 10 tensors)

sequential/F7/BiasAdd/ReadVariableOp/resource f4 [10]
00000000: 98b6 88bc fa8f 8e3c e410 23bd fff6 e63c
00000010: 8fcf 49bc cbeb 00bd 1c49 8cbd 78b4 db3d
00000020: 0605 353d dd06 d4bc
-0.01668863 0.017402638 -0.03981103 0.028193949 -0.012317552 -0.03147487 -0.06849882 0.10727781
0.044194244 -0.025882179

sequential/F6/BiasAdd/ReadVariableOp/resource f4 [84]
00000000: 5b33 9abd d654 0abe c1de 653a 031f d4bd
00000010: b783 20bd cabe d6bd ee2d e8bd ed74 67bd
00000020: 4e3b 75bd e08d 9abd 3190 68bc fdee 3ebd
00000030: a8ae a6bd 4993 d9bd 7602 a7bc b2ad 343d
00000040: 0ae5 e8bd 7015 75bd 1887 9bbc dccc 90bd
00000050: 6cca 1abd 800c 0abd e1af 96bd f9a8 74bd
00000060: dd46 8abd ff96 c7bd 1bde 113d d76f febc
00000070: a25e 74bd a050 873d 2a76 43bb 3a30 56bb
00000080: d5a3 10bd d27b dbbc 114c 9cbd ba87 0e3d
00000090: 06df 75bc 835d e1bd e24a f4bd 9e96 d8bd
000000a0: c7cd 34bd d9e3 cbbd 3b4c e3bd c928 8bbd
000000b0: 85ec b9bd 3f6e abbd 8d4e debc eb9f c0bd
000000c0: ab1d a1bd 4843 2dbc e01b 8ebd ddf6 95bd
000000d0: 5cee 25bd bbc3 e7bc 0fde 83bd ac16 39bd
000000e0: 1143 82bd 67b5 01bc bff7 b6bc b858 bebd
000000f0: e82b 18be 739d b7bc 8f7e 70bd 48d9 c1bc
00000100: b117 55bd 0803 f0bd a3f6 d5bd 1fd1 f9bd
00000110: d429 efbc f4b8 a1bd 5626 c9bd 41e1 a0bd
00000120: f9fd 02be 2c9f 69bd d99f 95bd 0ca1 76bd
00000130: 6f98 a2bd fcec dcbd bdd1 ac3b 70a6 f0bd
00000140: 3bf8 bebd f2d1 323d eed4 9dbb bbed 8abd
-0.075293265 -0.13508925 0.00087688497 -0.103574775 -0.039188113 -0.10485609 -0.113368854 -0.056507993
-0.05987101 -0.07546592 -0.014194534 -0.046614636 -0.08138782 -0.106237955 -0.020386916 0.04411096
-0.11371811 -0.059834898 -0.018985316 -0.07070324 -0.0377907 -0.033703327 -0.07357765 -0.059731457
-0.06751797 -0.09745597 0.035612207 -0.031059189 -0.05966056 0.06607175 -0.002982507 -0.0032682554
-0.035312492 -0.02679244 -0.07631696 0.034797408 -0.015006786 -0.11004164 -0.11928345 -0.10575603
-0.044141557 -0.09955568 -0.11098524 -0.067948885 -0.09078316 -0.08370637 -0.027137065 -0.09405502
-0.07866987 -0.010575123 -0.069389105 -0.07322476 -0.04051052 -0.028291574 -0.06438839 -0.045187637
-0.06360448 -0.007916785 -0.022334931 -0.092942655 -0.14860499 -0.022413945 -0.058714446 -0.023663178
-0.052024547 -0.11719328 -0.10447433 -0.1219809 -0.02919475 -0.07896605 -0.09821765 -0.07855464
-0.12792195 -0.057036564 -0.07305879 -0.06021218 -0.07939231 -0.10787389 0.005274026 -0.117504954
-0.0932469 0.04365725 -0.004816643 -0.06783625

sequential/F5/BiasAdd/ReadVariableOp/resource f4 [120]
00000000: 7251 96bd 15cc b0bd 9d40 0dbd 9bb0 83bd
00000010: dc55 a63c d66c 1abd 3f08 80bd d268 fb3b
00000020: b7ce 70bd e7cb fcbc 24f3 a33d 7888 87bd
00000030: d63d e63b c62f 8fbc 8130 21bd 3ce3 67bd
00000040: 25d8 9dbd b385 91bc 65c9 6bbd 1a4f 80bd
00000050: e47e 99bd c9bc 24bd 189b 83bb 29ae b7bc
00000060: 2873 87bd 2740 80bd 2c90 59bd 4c80 33bc
00000070: c188 ee3b 77ed 3abd 31a9 1ebd c717 6abd
00000080: b8a3 27bc 957e 893b 1023 ffbc 727f 71bd
00000090: 765b edbc ad60 9cbc 714b 00bd b7a2 50bd
000000a0: d485 a0bd 4703 a63b 4fad 95bc c96a 84bd
000000b0: a0f5 acbd e741 28bd 1ee7 583c 0531 68bd
000000c0: 0c18 fbbc 8079 abbc 6f46 14bd 60d4 56bd
000000d0: 55fb 4dbd bf30 87bd b120 393d a8fe a9ba
000000e0: b485 94bc 7477 4dbd e6f5 f6bd c758 5b3d
000000f0: 8dd9 a0bc b93a b1bc 780a 3bbd 5d10 8bbd
00000100: fb0a 84bd 6794 eebc 29a8 ecbc 6ec2 0e3d
00000110: 7d58 a3bd 44a3 44bc 74bf 4ebd f80f 933d
00000120: c679 80bc c6cd d9bb f679 9fbd 20a9 c1bc
00000130: 018a 27bd 1fbb a3bb eb23 b7bd 3417 99bd
00000140: 67e5 32bd 9339 133d 507b 29bd 2b3f b03c
00000150: 6a45 843c 2ae0 97bd 9d4b 7e3c 7bfc 4abd
00000160: fc0c 44bd b06c 94bd 5174 6e3c 39cc 98bc
00000170: ff97 3bbd c4e8 50bc 529c 80bd ce50 42bd
00000180: 1663 b73c 69d6 b4bb dd8c 14bd 9e44 99bc
00000190: abf1 bd3b c4ef 1ebd 71e1 1cbd ba1c 3ebd
000001a0: b4b5 abbc f2bf 38bd 70b5 e3bc 0e45 4bbd
000001b0: 707d 86bc b1a7 6cbd 371a 42bd 5d68 0ebd
000001c0: a355 11bd 4d9b 92bc f800 efbb b5c1 81bd
000001d0: 801d 85bd b426 02bd baa8 95bc 91da de3c
-0.07339753 -0.086326756 -0.03448545 -0.06430169 0.020304613 -0.03770145 -0.06251573 0.0076724077
-0.05879089 -0.030858947 0.0800536 -0.06617826 0.0070264144 -0.017478835 -0.039352898 -0.056613192
-0.07707242 -0.017763948 -0.05756511 -0.062650874 -0.074949056 -0.040219102 -0.0040162914 -0.022421913
-0.06613761 -0.06262236 -0.05311601 -0.010955881 0.007279486 -0.04563662 -0.038735572 -0.057151582
-0.010231905 0.004195998 -0.031144649 -0.058959432 -0.028974276 -0.019089067 -0.031321947 -0.050936427
-0.07838026 0.0050663087 -0.018271117 -0.0646568 -0.08445287 -0.041078474 0.013238696 -0.056687374
-0.030651115 -0.02093196 -0.036199983 -0.05244863 -0.050288517 -0.066010945 0.045197193 -0.001296957
-0.01813016 -0.050162748 -0.1205862 0.05355146 -0.019634986 -0.021634446 -0.04566428 -0.067902304
-0.06447407 -0.029123498 -0.028888779 0.03485339 -0.07975862 -0.012001816 -0.050475553 0.0718078
-0.015683066 -0.0066468446 -0.07786934 -0.023640215 -0.040903095 -0.004996672 -0.08942398 -0.07475129
-0.043675806 0.03594358 -0.041377366 0.021514496 0.01614638 -0.07415803 0.015520957 -0.04955719
-0.047863945 -0.07247293 0.014554099 -0.018652068 -0.04579925 -0.012750808 -0.06279816 -0.047440343
0.022386115 -0.0055187237 -0.03626715 -0.018709477 0.0057966313 -0.038802877 -0.038300935 -0.046414115
-0.020960666 -0.04510493 -0.027796477 -0.049626403 -0.016417235 -0.05777711 -0.04738828 -0.034767497
-0.03548206 -0.017896319 -0.0072938167 -0.06335775 -0.06499767 -0.03177519 -0.018268932 0.02720383

sequential/C3/BiasAdd/ReadVariableOp/resource f4 [16]
00000000: c53a 2dbd 272e ca3d 8570 31be de52 2ebd
00000010: 576f 1bbd 346c 15be 7aca ac3c 6dd9 8ebd
00000020: 12b2 fabc 3628 c9bd b3f3 6abd e57a 0fbe
00000030: 6686 c9bb b636 c53c 6e54 6ebc 4956 cdbd
-0.042292375 0.09872084 -0.17328079 -0.042559497 -0.03794798 -0.14592057 0.021092642 -0.069750644
-0.030602489 -0.09822123 -0.057361316 -0.14011724 -0.0061500547 0.02407394 -0.014546497 -0.10026223

sequential/C1/BiasAdd/ReadVariableOp/resource f4 [6]
00000000: 2fe2 61bb 0133 8bbd 8634 1c3d 204d 92be
00000010: dff9 63bc 500d 86be
-0.0034467091 -0.067968376 0.038136028 -0.28574467 -0.013914554 -0.26182032

sequential/F5/MatMul f4 [120, 400]
00000000: eb7e b33d bf1c d1bd b97f 1abe 28bf 03be
00000010: c0dd 943c f083 87bd 89cd 623d 364b 06bd
00000020: c236 9ebd 9f7a 6a3d a858 f2bc 6e80 f33c
00000030: a089 1a3b e21e 8cbd 5d7c c6bd e65a 90bd
00000040: 166c a03c a56c b6bd 31e2 4cbc 4d5f f6bd
00000050: a9b2 043d a008 6b3d 9cb1 5aba 3cf2 0cbd
00000060: 3291 a4bc de13 ee3c 9495 d0bd 2e04 34bd
00000070: 5d15 4ebd acdb d6bd 4c49 d0bd 2c2d e6bb
00000080: b978 c9bd 1d04 5abd 7098 c3bd f401 6e3d
00000090: 3b1d 853d 95ae c43c b9f6 783c 8a16 1abd
000000a0: 62a9 c0bc f348 f8bd f251 3fbd b826 033d
000000b0: 631c 64bd 57f1 9b3d 57c1 843c 8e3a 36bd
000000c0: d0af 943d 66f4 d13c af35 7a3d 012d d23b
000000d0: f45a 2fbd 4066 0fbd 753e bf3d aeca d6bd
000000e0: 582d babd 72f8 933d 924a 203d e036 f6bc
000000f0: 90c9 b1bd 9117 c7bd 7ab2 a43d 9e42 bfbd
00000100: e1d9 19bd 8810 40bd 7e0d 583c cbef 633b
00000110: a935 6cbd d64a 87bd 9849 82bd a289 cfbd
00000120: 041a c8bd c766 8c3d c5bc 463d 535f 7d3d
00000130: 37d4 04be 1857 233b cc54 c1bc 6514 6bbc
00000140: 5a04 9abd 9a50 aabc 8398 b93c 93ad 88bd
00000150: 0ef4 b7bd 107d 233d 03a6 a43d dcb1 403d
00000160: cd85 003d de9a a2bd b9bd e53c 50ac b9bd
00000170: c4f0 cfbd 73f3 acbd bdd6 e4b8 75ae 9f3d
00000180: 7584 9e3d 19f3 b83c 7c27 01bc a85a 03bd
00000190: 3ded 2f3d 3b6b f7bd bf73 a9bd 5226 a53d
000001a0: 3193 8ebd 5108 8d3d 77cc 8d3d 9260 523c
000001b0: 629e 3cbd fed1 3e3c 7df1 b03d 56dd 003c
000001c0: f1d4 b7bd 4cf8 babd 5d7b 0abd 3c64 0ebd
000001d0: 40cb bebd 931a 6bbd daa0 63bd 1a20 73bc
000001e0: 3843 2bbd ecfe 843d 520f 9cbc ce31 a1bd
000001f0: 17eb 67bd a153 1fbd abe7 8b3d c804 7e3d
00000200: 2f93 5c3d 3baf 203d f53c a8bd a6ea bb3c
00000210: 39e0 abbd 4ca4 08bd 9687 d0bd 167d d53b
00000220: d3b6 acbd 5aa4 a83c e5f3 913d 787d 5d3d
00000230: cb62 983d 567f c83c 495e 6c3d 5bb1 153d
00000240: 722f 8abd 0e2e 5f3d 6866 18bd 1d51 9c3d
00000250: 18b8 0f3a 5fe0 f5bb f5ea bf3d dfd9 75bd
00000260: 5f31 4fbd a4c8 353d 30c6 a03d 0141 c1bd
00000270: bdfc 21bd a6c8 ec3c 3f37 5d3b 5a9e 963d
00000280: 000c b7bd a48e 95bd f9ad 20bd d18d 4fbb
00000290: bb80 8cbd 7fc8 d53c 060d 88bd f1ac 3abc
000002a0: 54c0 80bd 3807 3fbc 2d24 653d 40db 55bd
000002b0: 6ad4 b03d 8c00 b33c 85d9 96bd 5efe 52bd
000002c0: b651 a9bd 21dd 2abd ca98 bf3b 7eee 02bd
000002d0: 6102 483d 5ff9 7d3d 5f8a a43d 9d1d 96bc
000002e0: 0df9 06bd 3e74 03bd e7f4 15bd 2eca f23b
000002f0: 5d11 363d caaf f3bc 2038 40bd ee59 76bd
00000300: ea5b 753c 9b33 06bd e3af c3bd 3ad5 8fbd
00000310: d27f cc3c d64b 9bbd 2321 1b3d ac05 843d
00000320: 8a76 1b3d f372 7c3d 0f6c b33d d1d8 81bc
00000330: cba6 24bd 18d4 8fbb 32db bd3c 6a9f c93d
00000340: cb77 6b3d 9275 bbbd 3b33 f6bd ba75 1dbd
00000350: 81d5 d3bd da46 8a3d 8ce3 05bc 62d6 80bd
00000360: db4f 6f3b 0cc4 93bd 801e 753d 227d 473d
00000370: d3aa 8ebc 55f9 84bc 0396 bb3d 9d92 e8bb
00000380: 071d c6bc a949 443b 6585 5dbd ae67 02bd
00000390: 0bab ae3d 7e21 69bd f697 55bd 1709 873d
000003a0: 384c d3bd 5c30 363d ce9a 913d ef08 94bd
000003b0: d226 043d 2e12 60bd 1e27 443c d516 ba3c
000003c0: 1d00 9f3d a595 b5bd b52c 87bc 02f8 10bd
000003d0: 4443 3d3d 1bed eebc 616c 70bd 65b4 8a3c
000003e0: 818c 03bb 962a 293d a11e c5bd cc94 353b
000003f0: 3366 7d3d 9735 ddbd e7c7 973d 6414 723d
0.08764442 -0.10210561 -0.15087785 -0.12865889 0.018172145 -0.06616962 0.055371795 -0.03278657
-0.07725288 0.057245847 -0.02958329 0.029724326 0.0023580566 -0.06841828 -0.09691689 -0.070485875
0.01958279 -0.08907441 -0.0125051 -0.12029896 0.032396946 0.057381272 -0.0008342506 -0.0344107
-0.020088766 0.029062208 -0.1018478 -0.0439493 -0.050313342 -0.10491118 -0.1017023 -0.007024428
-0.09837479 -0.05322658 -0.095505595 0.05810733 0.06499716 0.024009028 0.015195542 -0.03761915
-0.023518268 -0.12123289 -0.04670901 0.032019347 -0.055691134 0.07614391 0.016205473 -0.044489436
0.07260096 0.025629234 0.061086353 0.0064140563 -0.04281135 -0.035009623 0.093380846 -0.10487877
-0.0909068 0.072251216 0.039133616 -0.030055463 -0.08681023 -0.09721292 0.08041854 -0.09338878
-0.0375613 -0.046890765 0.013186811 0.003478038 -0.05766836 -0.06606071 -0.06361693 -0.10133673
-0.09770587 0.06855541 0.04851987 0.061858486 -0.12971579 0.0024923738 -0.023600005 -0.014348124
-0.07520361 -0.020790387 0.022655731 -0.06673732 -0.089820966 0.03991419 0.08039477 0.04704462
0.031377602 -0.07939695 0.028044568 -0.09066069 -0.10153344 -0.08444872 -0.00010911885 0.07796947
0.07740108 0.022576855 -0.007882949 -0.03206888 0.042950857 -0.120809995 -0.0827403 0.0806395
-0.06961668 0.06886352 0.06923764 0.012840407 -0.046049483 0.011646746 0.0863981 0.007865271
-0.08976162 -0.0912939 -0.033809055 -0.03476356 -0.093161106 -0.05739839 -0.055573322 -0.014839197
-0.04181215 0.06493935 -0.019050274 -0.078708276 -0.056620684 -0.038898114 0.068312965 0.06201628
0.053851303 0.039229613 -0.08214752 0.022939038 -0.083923765 -0.03335981 -0.10182111 0.0065151555
-0.084333085 0.020586181 0.07126597 0.054074734 0.07440718 0.024474781 0.057707105 0.036546092
-0.06747331 0.05448728 -0.037207037 0.07632659 0.0005482449 -0.0075035538 0.09370986 -0.06002223
-0.050584193 0.0443808 0.07850301 -0.09436227 -0.03954767 0.02890427 0.0033754853 0.07354422
-0.08937836 -0.07302597 -0.039228413 -0.0031670223 -0.06860491 0.02609658 -0.06643109 -0.0113937715
-0.06286684 -0.011659436 0.055942703 -0.052211046 0.08634265 0.021850847 -0.07365707 -0.051512115
-0.08267538 -0.04171479 0.0058470713 -0.031965725 0.048830394 0.062005397 0.08034205 -0.018324668
-0.032952357 -0.03209328 -0.03661051 0.0074093556 0.044450153 -0.029746909 -0.046928525 -0.060144357
0.014975527 -0.03276406 -0.09555032 -0.070230916 0.024963293 -0.07582824 0.0378734 0.06446394
0.037954845 0.06163306 0.08760845 -0.015850456 -0.04019813 -0.004389297 0.02317581 0.09844859
0.05748729 -0.09153284 -0.1202149 -0.03844235 -0.10343457 0.06751795 -0.008171927 -0.0629089
0.0036516103 -0.07215127 0.05984354 0.04870332 -0.01741544 -0.016232172 0.09159472 -0.007097556
-0.024183763 0.0029951131 -0.054082293 -0.031837158 0.085287176 -0.056916706 -0.052146874 0.065935306
-0.10317272 0.044479713 0.07109605 -0.072282664 0.032263584 -0.054704838 0.011972217 0.022715965
0.077636935 -0.08866433 -0.01650081 -0.03539277 0.046206728 -0.029165795 -0.05869711 0.016931722
-0.002007276 0.04130038 -0.096249826 0.0027707098 0.061865043 -0.10801237 0.07411175 0.059101477

sequential/F6/MatMul f4 [84, 120]
00000000: bc92 cebd f92d 48bd 51ce 0dbe ef26 2cbd
00000010: d001 43be cc3c 09be f80e e43d c5ef bebd
00000020: 4265 153d ee9f b93d e161 5c3d 84dd 873d
00000030: b3d9 0d3e 6175 763e 5777 6b3d 2144 05be
00000040: 8306 e73d 37f6 2dbe b9b8 e73d a73a fdbd
00000050: 645a af3d 209d b9ba 5b33 d7bb 9d3a 483d
00000060: e952 b7bd cc4c ee3d 6e09 b83d c9e3 1fbe
00000070: 026d e23d 8fe9 f2bd 863b 073e 3b7d c8bc
00000080: 0749 083e 2b5a 23be d298 16bd 8157 093d
00000090: 1664 72bd 57bc 153e 1aa5 3b3d fc38 c53c
000000a0: 43f0 1e3e b54b f63d c743 04bd 57b7 3e3a
000000b0: f0c2 d8bd 8041 f63d decd 30be 88f2 cd3d
000000c0: 426b a4bd 6e2c b4bc 09da fd3d 5540 7d3d
000000d0: 773a d83d 8f3c 903d 94e2 a7bd 4d84 803d
000000e0: 5db6 e6bd 781d edbd add9 683d de24 abbd
000000f0: 2b3c ea3b 2d0b 12be f7d9 ebbd cc36 083e
00000100: a0bf 353d ba7f 963c b26a 1fbe 9fd5 e4bd
00000110: e51d 043e 33a5 a0bd c239 f0bc 9e18 16be
00000120: 87f2 983d f42a 11be b0b8 7ebc 6cf7 b5bd
00000130: 8934 1bbd 55e8 663d bc67 2a3d 4826 173e
00000140: 45b4 5d3d e010 17bd 29c2 09be fd94 debc
00000150: 800b a93d 14fa 48be f4eb 3e3d 2115 913d
00000160: 14fe 7b3d f2a5 2e3e da6c 3dbe 28db 9c3d
00000170: 7a76 f83d 9225 b1bc 44d5 27bc f24c 2bbb
00000180: c73f 01bd 0e85 873c 0395 d539 1205 0cbe
00000190: cba2 583d 6a8b 5fbe 4f6e 9f3d c230 64bc
000001a0: 967b fdbd 4b71 a43c 3488 1e3d 0eca ec3d
000001b0: 198c 31bd d416 ad3d fb71 233e 5961 3fbe
000001c0: fc4c 51be 6ba3 5e3d 97a3 bb3d 2f4e 993d
000001d0: fce2 a43d f454 07be ca64 843c 01ff 84bd
000001e0: b383 813d 5d91 a8bc 3b73 0d3e f14d b23e
000001f0: 6a39 03be 5d49 2c3e 0557 d43d b5e3 de3d
00000200: a439 873d 69f3 283d e7f3 25be 3732 453c
00000210: 092e 383d ea82 053d a54d 0f3e 7bf1 05be
00000220: 6c68 dfbd e8a4 3a3d a63e fdbd cff4 8dbc
00000230: de6a 253d b4b4 933d c551 b5bd 8df8 56be
00000240: 26c2 c13d 4756 38b9 1102 213d 82d3 ff3d
00000250: cbf9 35be b06f 9d3d 5465 d1bd 08ae cbbd
00000260: 1cbf 0bbe 2926 34be 0e4b 06be d8e1 5cbe
00000270: b73b 133e 56a5 253e b6f4 29be 5ef1 443e
00000280: fdd6 063d 7c37 043e 9c8b 50bc b480 3c3e
00000290: c4a0 3f3d e299 da3d 4a70 c13d 99fb 33bd
000002a0: 8a9a 17be 4b98 4cbe 6e93 73bd ccf8 82bc
000002b0: 64ce 6bba 6aad f1bc d6a7 603d 7d9a 14be
000002c0: 67dc 20bc 9714 5ebd 133c 6f3d 98bd 8abc
000002d0: 2d15 4d3d 3126 053d f9c1 043e 4e29 97bd
000002e0: a550 bc3d 126d 1ebe d9ae 603b ff5e 503d
000002f0: 2948 253d edf0 08be 182c 1a3e f42d a6bc
00000300: eafc dcbc 2591 c73d 933d 6ebd 3239 5f3c
00000310: 29e0 053e f87b 75be d44a 75bd bc24 53bd
00000320: 2422 a9bc e49d 8cbe acdd 773d adf5 4cbe
00000330: 51b9 cb3d 5606 073d 3455 afbd d4cd 22bd
00000340: 394f 05bc 37d0 1bbd 8bc8 efbd 6a39 8fbd
00000350: 0c48 f2bd cd01 b23d d010 363d aee0 1b3e
00000360: 0759 e03c 7be9 6939 2d1c 29be bcc8 5cbd
00000370: cc19 04be 65f5 0c3e d644 3fbe 7dab 1ebe
00000380: 0f16 1cbe cac0 f73d 659f 5bbd 46e6 a5bd
00000390: 452b 2fbe 65cb a53d 204e ae3d 72dd 9f3c
000003a0: 7ca6 19bc 9698 2f3e 634b 9f3c 6407 ebbd
000003b0: f672 c6bc 9bb9 09bd 6b31 743d 9ccf 11be
000003c0: bda4 0bbe 3e85 fabd ae70 b93d 86c0 043d
000003d0: 7bbd f73d 9656 66bd 28a3 eb3d b283 ccbd
000003e0: 5f86 b7bd e63a e3bc f3bd 163e 7c89 a73d
000003f0: 5613 913d 8584 65bd acf2 e93c b02b 153e
-0.10086581 -0.048871968 -0.13848235 -0.042029317 -0.1904366 -0.13402098 0.111356676 -0.09323076
0.03647352 0.09063707 0.053804282 0.066340476 0.13852577 0.24068214 0.05748686 -0.1301427
0.11280539 -0.16988455 0.1131453 -0.12364703 0.085621625 -0.0014161207 -0.0065674013 0.048884023
-0.08951361 0.116357416 0.089861736 -0.15614237 0.11055948 -0.11860954 0.132063 -0.024473777
0.13309108 -0.15952365 -0.036766835 0.033530716 -0.05917748 0.14622627 0.04581175 0.024075024
0.1552134 0.12026159 -0.0322912 0.00072752446 -0.105840564 0.12024212 -0.17266032 0.10056025
-0.0802827 -0.021993842 0.123951025 0.06182893 0.10558026 0.07042801 -0.08197513 0.06275234
-0.11265252 -0.11577886 0.056848217 -0.08356641 0.007148286 -0.14262076 -0.11516183 0.13302153
0.0443722 0.018371452 -0.15568045 -0.111735575 0.12902029 -0.07844009 -0.029324416 -0.14657828
0.074681334 -0.14176542 -0.015546963 -0.088850826 -0.0378919 0.056373913 0.041602835 0.14760697
0.054126997 -0.036881328 -0.13452972 -0.027170653 0.082541466 -0.19626647 0.04661174 0.07084108
0.061521605 0.1705549 -0.18498555 0.07658988 0.121319726 -0.02162436 -0.010243718 -0.0026138392
-0.031554963 0.016542938 0.00040737548 -0.13673809 0.052889626 -0.21830526 0.077847116 -0.01392764
-0.12377088 0.020073554 0.038704112 0.115619764 -0.0433465 0.0845162 0.15961449 -0.18689479
-0.20439523 0.054355066 0.09162062 0.074856155 0.08051106 -0.13216001 0.016161341 -0.06493951
0.06323948 -0.020577127 0.13813488 0.3482509 -0.1281487 0.16824861 0.1036816 0.108832754
0.06602791 0.04124776 -0.16206323 0.012035898 0.044965778 0.032595553 0.13994463 -0.13080399
-0.10908589 0.045567423 -0.12365465 -0.017328648 0.04038512 0.07212201 -0.08853487 -0.20993252
0.09460859 -0.00017579748 0.03930861 0.12491514 -0.1777107 0.07687318 -0.10224405 -0.09945303
-0.13647121 -0.17592682 -0.13114569 -0.21570528 0.14378248 0.16176352 -0.16597256 0.192327
0.032919873 0.1291179 -0.012728598 0.18408471 0.046784177 0.10673882 0.094452456 -0.043941114
-0.14805046 -0.1997997 -0.05946677 -0.015987776 -0.0008995293 -0.029501636 0.05484756 -0.14512058
-0.009818173 -0.054218855 0.0584069 -0.016936108 0.050069023 0.032507125 0.1296462 -0.07380925
0.09195069 -0.15471295 0.0034283905 0.050871845 0.04035202 -0.13373156 0.15055883 -0.020285584
-0.026976068 0.09744481 -0.05816419 0.013624476 0.13073792 -0.23973072 -0.059885815 -0.051548705
-0.020646162 -0.2746421 0.060514137 -0.20015593 0.09947456 0.032965027 -0.08561173 -0.039747074
-0.008136564 -0.038040366 -0.117081724 -0.06993373 -0.11830148 0.0869175 0.044449627 0.15222427
0.027386202 0.0002230759 -0.16514654 -0.053902373 -0.12900466 0.13765486 -0.18678603 -0.15495105
-0.1524279 0.120973185 -0.053618807 -0.08100562 -0.1710635 0.08095435 0.08510995 0.019514773
-0.009378072 0.1714805 0.019445127 -0.11476019 -0.02422474 -0.033624273 0.05961744 -0.14239353
-0.13637061 -0.12232445 0.09054695 0.032410167 0.120966874 -0.05623492 0.11505729 -0.099860564
-0.08961176 -0.027738046 0.14720897 0.0818052 0.07083766 -0.056034584 0.028558098 0.14567447

sequential/F7/MatMul f4 [10, 84]
00000000: 28b0 0b3d a731 d53d 4435 363e b80f 923b
00000010: a898 09bd b6ff cb3d b6eb 5bbe 97ac 23be
00000020: ba41 f9bd 6d96 10be d83a 06be 8c10 523e
00000030: 82a0 693c 932e 17bd 9659 943c a124 56be
00000040: 0667 b63c 654a aa3d 3f61 83be 1a74 163e
00000050: fb1f 433d 126c 95be b3d2 28be b4c9 ae3d
00000060: 91ed 883c c628 a23d 3bc5 adbd 60f2 24bd
00000070: 0cce 4fbc 14ae 6cbd feb8 44bc ef48 d0bd
00000080: 444d 0e3e cc29 14be 59c4 523d e4c5 22bd
00000090: cb68 113e 671d 1abe 6b67 0c3e 506c 11be
000000a0: a77b c0bd 4d56 c2bd ab6a 89bd ae4c 163e
000000b0: 078f 92bd 5bd7 dbbd c5fd f9bc 4640 eabc
000000c0: e764 5b3e 42e7 b2bd c761 3b3c ec73 73be
000000d0: 019f f1bc 9478 4c3d eaf0 6a3e 272d 09be
000000e0: ff45 d93d f409 68be e9de a83d bb6d eb3d
000000f0: 755e 1e3e 677c 00be abf9 1fbe b5cf 29bd
00000100: f37c 8fbc b8a0 423d 3497 0f3e 66c0 f2bd
00000110: 1bff 823d eac9 84bd 0c03 bbbc b93f 273e
00000120: a0ed 2a3c 8d23 2e3e 0000 8abe 291e ee3d
00000130: 04b8 123d d966 c43d 8b30 96bd dc8d 0a3e
00000140: a8fe 1d3e 3455 c3bd 98a6 d0bd d4a6 9fbc
00000150: 7e2f acbb 04ed b33b 8e9c 61be 11e7 173e
00000160: 9eae 503d db32 83bb e56e ee3d a9b3 f6bd
00000170: d2ae b0bd 1a26 383d ac60 aebd 411a 193e
00000180: 4f33 653e e148 4cbe 1afd 49be 97d9 3c3e
00000190: eb2f 8bbd 3857 47be 1f62 02be 0f3b 10be
000001a0: c76b f5bd 68e1 66be 86ec df3d c02b 13be
000001b0: e4c5 04bc 6da7 1c3c c7c9 0dbe 30f0 773c
000001c0: c1f5 07be e410 1a3e 2495 ff3c a572 e73d
000001d0: 0215 2b3e 7080 d9bc 775a 6b3e 20bd 1ebe
000001e0: ce0f cf3d 1576 03be 9b72 92bc 675e 7dbc
000001f0: ef23 443d ebc5 44bc 3a4c ff3d e2b4 83be
00000200: 4ab7 92bd 84b2 103e 827b b7bd 3484 8f3c
00000210: a0c1 b33c 72f8 68bd deea 823d 70c4 193e
00000220: 773d e7bd 8c7f de3b f837 f43c 7a40 9a3d
00000230: 08a6 6bbe a495 d63d 7730 8c3e 4749 193e
00000240: 7135 c5bd db77 333d 9790 2abe d57a 35be
00000250: 7370 8ebd 761c 323d 8350 6abe 05e9 02be
00000260: c862 d23d a901 003e ea85 95bd eb15 8f3d
00000270: 9efb 473e b94f c63d ea24 2fbe f205 50be
00000280: 02c3 71be fa2b dd3d 6e20 5f3e 34e3 39be
00000290: 0574 8c3d 8756 e4bc 829e 44be 9878 8cbd
000002a0: 4d0a 06be 7842 f9bc a9ce 363e 3f62 003d
000002b0: 2848 4f3e 36bf a93c 1eda 10bd f4d8 e13d
000002c0: 16e6 cabc d93d a1bd 6198 c6bc 94c6 f83d
000002d0: 8c66 0abd cdf5 9d3d 2109 0dbe bada 0ebe
000002e0: 8a22 a53d c908 383e 1847 393d bdd8 8d3d
000002f0: 860b 7ebd 1014 10be b07d 053e dd30 463d
00000300: a2f5 b63d e8a6 0abe 4a6e e9bd a80a 95bd
00000310: 7ab5 3c3e 4b42 99bc 645d 543e 345e 36bc
00000320: 8442 213e b0f9 8ebd 6d3a b73d 5bd2 0cbe
00000330: 64f7 803d 43e1 e33d a023 493e f293 a8bd
00000340: d760 27be 4d0e 563e 58f2 79bd 2779 4c3d
00000350: bf92 ef3d 1b9b dbbd 49a3 75bd 6f1e 073d
00000360: 0f78 38be 4353 063e 158f 313e 2c94 093d
00000370: 1bec d93d 6e72 173e c044 5ebd 5caf dc3d
00000380: 0f60 51bd 5b9f 56bc 3c31 5f3d 25b7 e73d
00000390: f315 9abd b3dc 4fbe 767a 1ebe 905d d9bd
000003a0: 576f dd3d 597e 05be 39d3 b6bd a6f0 0f3e
000003b0: 9e7f 95bd 7458 6e3c 8aa5 433e 7113 26bd
000003c0: 1f5d 7abd a6c6 12be bcd3 5dbd 583f 3abe
000003d0: 641e 52be 4fdd 10be 4c75 183e 2ecb 843d
000003e0: 4039 b53d 6088 fcbd 80c6 1d3e ad27 3fbe
000003f0: 9a38 f3bc 8c34 c0bd c862 7bbc e54a 31be
0.034103543 0.10409861 0.17793757 0.00445744 -0.03359285 0.09960882 -0.21476635 -0.15983807
-0.121707395 -0.14119883 -0.13108385 0.20514125 0.014259459 -0.03690965 0.018109124 -0.2091241
0.022265922 0.08314971 -0.2566013 0.14692727 0.04763792 -0.29184014 -0.16486625 0.085345656
0.016714843 0.07917933 -0.08484884 -0.04027021 -0.012683403 -0.0577832 -0.012006996 -0.10170161
0.13896662 -0.14469069 0.051456783 -0.039739504 0.14200132 -0.15050279 0.13711326 -0.14201474
-0.09398585 -0.09489117 -0.067097984 0.14677688 -0.071561866 -0.10734435 -0.030516515 -0.028595101
0.2142521 -0.08735515 0.011436886 -0.2377469 -0.029494764 0.04991968 0.22943464 -0.1339613
0.10609054 -0.22660047 0.08245642 0.11495539 0.1546572 -0.12547456 -0.15622585 -0.04145785
-0.017515635 0.047516555 0.14022523 -0.11853103 0.06396314 -0.064838246 -0.022828601 0.16332902
0.010432631 0.17005749 -0.26953125 0.11626846 0.035820022 0.09589929 -0.073334776 0.13530678
0.15429175 -0.095377356 -0.10188025 -0.01948873 -0.005254685 0.005490901 -0.22032377 0.14834239
0.050947778 -0.004003865 0.11642245 -0.12045986 -0.08627094 0.04495821 -0.085145324 0.14951421
0.22382854 -0.19949676 -0.19725457 0.18442379 -0.06796249 -0.19466865 -0.12732743 -0.14085029
-0.119834475 -0.22546923 0.10933785 -0.14372158 -0.008103821 0.009561402 -0.13846503 0.015132949
-0.13277341 0.15045506 0.031199045 0.113011636 0.16707233 -0.026550502 0.22983728 -0.15501833
0.101104364 -0.12838013 -0.017876914 -0.015464402 0.04788583 -0.012010078 0.12465711 -0.2572394
-0.07163866 0.14130598 -0.08959104 0.017519094 0.021942914 -0.05687756 0.063924536 0.15016341
-0.1129102 0.006790107 0.029811844 0.07531829 -0.23012555 0.104777604 0.27380726 0.1496936
-0.09629334 0.043815475 -0.16656719 -0.17722638 -0.06955042 0.043484174 -0.22882275 -0.12784202
0.10272747 0.12500633 -0.07300933 0.069866024 0.19529578 0.09683175 -0.17103925 -0.20314768
-0.23609546 0.107994035 0.21789715 -0.18153077 0.068580665 -0.02787329 -0.19201091 -0.06858939
-0.13089867 -0.030427203 0.17852272 0.031343695 0.20242369 0.02072106 -0.035364263 0.11027709
-0.024767917 -0.07873125 -0.024242582 0.12147251 -0.033789203 0.077128984 -0.13773014 -0.13950625
0.080632284 0.17972101 0.045233816 0.06926105 -0.06202271 -0.14070153 0.13036227 0.048386443
0.089335695 -0.13540232 -0.11397989 -0.07277423 0.18428603 -0.018708369 0.2073875 -0.011130858
0.1574803 -0.06981218 0.08946691 -0.13752119 0.06297186 0.1112695 0.19642496 -0.08231343
-0.16345535 0.20903893 -0.061022133 0.049920227 0.116979115 -0.107229434 -0.059970174 0.032988008
-0.18014549 0.131177 0.17339738 0.033588573 0.10640737 0.14789745 -0.054264784 0.10775635
-0.051117 -0.013099517 0.054490313 0.11314229 -0.07523718 -0.20299034 -0.15476403 -0.10613549
0.10812252 -0.13036479 -0.08927006 0.14056644 -0.07299732 0.014547456 0.19106117 -0.040545885
-0.061123963 -0.14333591 -0.054157004 -0.18188226 -0.20519406 -0.14146923 0.14888495 0.06484066
0.0884881 -0.12330699 0.15407753 -0.18667479 -0.029690076 -0.093850225 -0.0153433755 -0.17313726

sequential/C1/Conv2D f4 [6, 5, 5, 1]
00000000: 726b 8a3d 13cf 11be 4211 cc3d df62 8f3d
00000010: d94f 3abc fa76 553d 7fd8 21bd e80d d13d
00000020: 3353 5b3d 00e1 f63a 8bc6 01bd 128d fd3d
00000030: e349 8d3d c737 fc3b ae10 913d 37be 41be
00000040: e5af d5bd e072 04be 8eb9 bebc 80d1 04be
00000050: c356 14bd 5f47 38be d0b2 98bd 0373 12be
00000060: 2cf8 08bc bfc9 15be 54f8 b23d aa44 733d
00000070: a49e 853b 8145 75bd 188d d03d 74e5 46be
00000080: 5bca 0abe c8d7 18be da5d a13b ae7e 30be
00000090: ce85 0ebd aa6c d0bd 0fd1 8c3d 67c6 8d3d
000000a0: daec 90be d762 a0bc 0ff5 b9bc 9c0c 1b3e
000000b0: ec84 d4bd 7307 fdbd 03e0 fdbd d6f2 c13d
000000c0: 3cc3 8d3d 3f99 a1bd 9718 8bbc 7de7 61bd
000000d0: 0010 cbbd 2dd6 c3bc d881 b93d 4ded 57be
000000e0: 05f0 d6bd b69f 1dbe 3818 10bd aee3 09be
000000f0: 9dc4 05be 9161 d83d e6e3 323c 0d5f 25be
00000100: db18 c33c 02b8 c53d 7a30 383d 7f3f 54bd
00000110: 2f38 7dbe d3ee 78bd 9ac5 6a3d 2da5 9a3d
00000120: f152 8fbc 4478 83bd 94bf b0bd 1bad 7cbc
00000130: 0f83 c73c 45ef 77bd e382 773d d2a8 2dbd
00000140: 9cff b9bd fcbc ac3d 089a da3c f03e e5bd
00000150: 0408 87bd 172b 9abd f1cd 79be b96e 48be
00000160: 1ed3 aabc 2d39 5f3d 1ac4 40be f75d 173d
00000170: dbfb 663d 17f3 09bc 83c2 f23d 4a19 353c
00000180: 4d5b 853d 2390 933d 2de2 663c 2f02 19be
00000190: 91b6 863d 7371 e83d 3236 563d 3773 a2bd
000001a0: 4f87 2abe 7fe7 91bc 6af3 dabc 2b53 f83d
000001b0: e68b ffbd a332 17be aeca df3d 1b67 d93c
000001c0: 7909 7abc ec19 e4bd b78e 19be c056 1fbd
000001d0: 6691 6f3c d2d9 a4bd 112a c5be 791c 0a3e
000001e0: 4faa 27bd 5e60 b6bd 21c2 99bd 2fdc 05be
000001f0: c0d8 fcbc afb4 c83b 6e65 0f3b 913d b03c
00000200: 8cfe 733d dbfe c43c a856 b73d a867 79bd
00000210: 871b 823d e2d6 9dbd 6d7a 63bb b3c7 a23c
00000220: 3e4f 8e3d 51f6 2dbd ffbb 6e3d 2ed5 383d
00000230: 297e 99bd b953 cf3d 3b51 19bd 480b 52bc
00000240: 7738 cd3d e01b 553c 8cba 95bd 8171 fb3d
00000250: 3fe2 dcbd 6ea2 4cbe
0.06758775 -0.14239149 0.09964229 0.0700128 -0.011371576 0.052115418 -0.039513107 0.102077305
0.05354614 0.0018835366 -0.031683486 0.12380423 0.068988584 0.007697079 0.070832595 -0.18920217
-0.1043394 -0.12934446 -0.023281839 -0.12970543 -0.036215555 -0.17995976 -0.07455981 -0.14301686
-0.00835995 -0.14627741 0.08738771 0.059391655 0.0040777493 -0.059880737 0.101831615 -0.19423467
-0.13553755 -0.14926064 0.004924518 -0.17235824 -0.034795575 -0.10176976 0.06875812 0.06922608
-0.28305703 -0.01957838 -0.02269986 0.15141529 -0.10376915 -0.123549365 -0.123962425 0.094701454
0.069220036 -0.078905575 -0.016979499 -0.055152405 -0.09915161 -0.023905838 0.09057969 -0.21086617
-0.10494999 -0.15392956 -0.035179347 -0.13465759 -0.13063283 0.10565484 0.010918593 -0.1614954
0.023815563 0.09654237 0.044968106 -0.051818367 -0.24728464 -0.060774636 0.057317354 0.07551036
-0.017495604 -0.06419423 -0.08630291 -0.015422131 0.024354486 -0.06053092 0.060427558 -0.042397328
-0.09081957 0.084344834 0.026684776 -0.11193645 -0.06593326 -0.0752775 -0.24394967 -0.19573487
-0.020852622 0.054497886 -0.18824807 0.036954846 0.05639253 -0.008419774 0.118535064 0.011053393
0.06511555 0.07205226 0.01409201 -0.14942239 0.065777905 0.11349764 0.05229778 -0.07932132
-0.16653179 -0.017810581 -0.026727397 0.12125238 -0.124778554 -0.1476541 0.1092733 0.026538422
-0.0152610475 -0.11137757 -0.14995848 -0.03890109 0.014622068 -0.080493584 -0.38508657 0.13487424
-0.040933903 -0.08905099 -0.0750773 -0.13072275 -0.030865073 0.006125055 0.0021880525 0.021513732
0.059568927 0.024047306 0.08952075 -0.06088987 0.06352907 -0.07707001 -0.0034710423 0.019870615
0.06948708 -0.042471234 0.058284756 0.04512518 -0.07494766 0.10123391 -0.037430983 -0.0128200725
0.100205354 0.013007134 -0.073109716 0.122775085 -0.107853405 -0.19983837

sequential/C3/Conv2D f4 [16, 5, 5, 6]
00000000: 265b d1bd 57f4 3b3e 8bf8 cfbd 1c27 fa3d
00000010: 4f43 3c3d f2ad dabc 460b e5bc 0627 4f3d
00000020: 1926 b5bd ecb4 bf3c b9d1 e73c 1d96 6d3d
00000030: bf6b cabd 6085 21be fab6 edbb c4f6 bbbd
00000040: bc32 203d 5368 253c 9a85 dc3c b431 78bd
00000050: 8d99 123c ba6c cbbd 957e dc3d d03a cc3c
00000060: 1833 2abb 7492 1dbd 43b0 003c f14b 6ebc
00000070: 40a0 8fbd 213a 80bc 5294 273d 76d4 ed3d
00000080: 6e40 b9bd dc80 b23d 3e3b 23bc 7c28 8f3b
00000090: 6d04 9dbc ae79 79bd e4c3 2abe 8559 86bc
000000a0: 4fc3 f9bb e338 e63d e1c9 223d ae40 453d
000000b0: 456f b8bd 6c31 5bbd 89d9 d13c abfd 82bc
000000c0: 1e30 4e3d 50a7 1e3d ba22 87bb 0574 eabd
000000d0: c40b 593d 1cf2 0a3c 246e 14bd 48e5 0f3e
000000e0: 7c58 4cbb 0f63 e63d 5046 3dbe c914 3bbc
000000f0: b9e7 913d c760 c03d 09c8 e43c e1a9 dfbd
00000100: 1038 783c e9f4 95bd d54a 3dbd 77ab 1dbe
00000110: 48c4 143d 5cc8 803c bb61 70bd 1b85 803c
00000120: eaf9 49bc ad7b 353d 2958 283e 5d85 d6bd
00000130: 7282 d2bd a0da 303d 33ab 353d 1722 b23d
00000140: 694a f33d 3349 a3bd 22f2 23be 4657 533d
00000150: def4 dabd f1ca 053d d8a1 4cbd 970e 003d
00000160: 6e56 d23c 63bb c3bc 4a51 a43d eaf6 ccbd
00000170: e408 2e3e 816c 5ebb 16d4 34be 84d8 15bc
00000180: 668c d8ba c0bf a2bd 330e d83d aec2 48be
00000190: 2b42 cfbc 19ec debd 7381 19be 40ff 0cbe
000001a0: 059d d53c d05f 72bd 229a 8bbd 101e a4bd
000001b0: 8f5b 3dbd 7e40 533d 0b3f 5dbd 98a3 fa3a
000001c0: 9cf4 47bd fe03 e2bd abf7 8dbd c4f8 eb3d
000001d0: 1395 f6bc b990 ffbd b711 583d 9f67 fc3c
000001e0: 17f6 7abd 2766 5abc b3d6 66bc 2f26 923c
000001f0: cff8 f9bd d071 133d 72c9 d1bd ebdd 70bd
00000200: 9f96 743d 7056 a2bd d51b 0bbe c484 34bd
00000210: aaae e1bd 7c86 6dbe 2797 12bd e725 09bd
00000220: 6890 df3d 0bf3 2dbd b823 853b 5577 f9bd
00000230: 083e f7bc 1830 bfbd b8e8 b93c 4a96 353d
00000240: 997d b7bc 14c0 69bd 9275 0bbd a5e2 623c
00000250: 546d 98bd 5222 de3c 8967 10be d0c7 c8bd
00000260: a9d8 b0bd fe83 92bd 961e 21be 7c38 1cbd
00000270: ce1e e0bc 4618 473b 3400 a33d 7f33 4cbe
00000280: c024 953c 71ea 073c db06 313d 9854 03bd
00000290: c37f 283d c172 26be 57e3 4d3c 570d cfbd
000002a0: 9cfb c8bb cabb 6cbc f6e4 4c3a acd8 1bbe
000002b0: 3178 dfbd bf32 893d a1d1 78bd 33cd 263e
000002c0: 896c 52be 6ca3 8dbd d45b 2dbd 937c 353d
000002d0: ddc0 94bd 384c cfbd de0c 753d b803 2fbd
000002e0: 1e0a fdbd ad2b 50be 231c 5fbd 754e a7bd
000002f0: 6102 0ebe 5c1c e0bd a0ff c3bd a33a c2bc
00000300: 5de0 ef3b 7a35 cbbd b0ea a63c c3ef b3bd
00000310: e4d3 a7b9 401c 8f3c 9a0f d7bd 73e8 ecbd
00000320: bf61 843d 8c50 6bbe 7fc9 ebbd 5177 afbc
00000330: 8f56 c1bc 59ce 513e 82a9 d3bd c00c 9739
00000340: bea9 f1bc bad9 893d 6047 39be fea3 ccba
00000350: 142a 9f3d b012 7a3c 6e54 59be 61e0 76bd
00000360: 03e9 04be 0e66 39be 208f e2ba 77e3 9e3d
00000370: 1d3d bc3c 2e60 0cbe 15d5 023e b154 5ebb
00000380: 57ad fb3d efe7 9f3c 9b21 babd b6df efba
00000390: 4a0d 3dbd 2616 46be f4fd 10bd eacc fbbd
000003a0: ab01 d1bd 3bbb fa3d 49b9 14be 1b3b e3bb
000003b0: 9d70 aebd 5120 80bc ffed 07be 952c 32bd
000003c0: e946 13be 6abc 13be 6d0d 1b3d b276 a0bd
000003d0: 8ffd e9bd c761 c0bd 0284 69bc 6539 c1bd
000003e0: 3625 02be 2bd9 29be 1839 aebd e92a 44be
000003f0: d625 863c 9653 36bd 7937 9d3d 23f7 79bd
-0.10222463 0.18354927 -0.10154828 0.12214491 0.045962628 -0.026694272 -0.027959477 0.050574325
-0.08845157 0.0234017 0.028298246 0.058004487 -0.09883832 -0.15773535 -0.0072544785 -0.09177926
0.039110884 0.010095674 0.026919175 -0.060594276 0.008947742 -0.09932847 0.10766331 0.024930388
-0.0025970396 -0.038469747 0.007854524 -0.014544473 -0.07012987 -0.015652718 0.040912934 0.11612789
-0.09045492 0.08715984 -0.009962855 0.00436884 -0.01916715 -0.06090706 -0.16676289 -0.016400108
-0.0076221596 0.11241319 0.039743308 0.048157386 -0.09005598 -0.05351393 0.025616424 -0.015990099
0.050338857 0.03873378 -0.004124013 -0.1144791 0.052989736 0.008480575 -0.03623785 0.14052308
-0.003118067 0.11249363 -0.18483853 -0.01141853 0.07124276 0.09393459 0.027927415 -0.10921074
0.015150085 -0.073221035 -0.046213944 -0.1539744 0.03632 0.015720539 -0.058686953 0.01568847
-0.012327651 0.0443074 0.1643988 -0.10474656 -0.10278787 0.043177247 0.04435272 0.08697908
0.11879427 -0.07972946 -0.16010335 0.051596902 -0.10691236 0.032664243 -0.049959034 0.031263914
0.025675979 -0.023893064 0.08023317 -0.100080326 0.16995579 -0.0033939185 -0.1765903 -0.00914586
-0.0016521334 -0.0794673 0.10549583 -0.19605514 -0.025300106 -0.10884876 -0.14990787 -0.13769245
0.02607585 -0.059173405 -0.06816508 -0.080135465 -0.046229895 0.051575176 -0.0540152 0.0019122241
-0.048817262 -0.11035918 -0.069320045 0.11522058 -0.030100381 -0.124787755 0.05275127 0.03081113
-0.061269846 -0.013330019 -0.014089274 0.017840473 -0.122056596 0.035997212 -0.10243501 -0.058805387
0.059713956 -0.07926643 -0.13584836 -0.044071928 -0.11019643 -0.23195833 -0.03578868 -0.033483412
0.10916215 -0.042468112 0.004063096 -0.12180964 -0.030180946 -0.09335345 0.022693977 0.04433278
-0.022398757 -0.057067946 -0.03404767 0.013847982 -0.07442728 0.027115975 -0.14101996 -0.09803736
-0.08635075 -0.07154082 -0.15734324 -0.038139805 -0.027358439 0.0030379458 0.07959023 -0.19941519
0.018206 0.008295641 0.04321943 -0.032063097 0.041137468 -0.16254713 0.012566409 -0.10109966
-0.00613351 -0.014449069 0.00078161 -0.15219373 -0.109115966 0.06699132 -0.060746793 0.16289215
-0.20549215 -0.06915936 -0.042323902 0.044308256 -0.07263348 -0.101219594 0.059826724 -0.042728156
-0.12355445 -0.20329161 -0.054470193 -0.08169261 -0.13868095 -0.10942909 -0.09570241 -0.0237096
0.0073204474 -0.09922309 0.02037558 -0.08785965 -0.00032010593 0.017469525 -0.10501023 -0.11567774
0.06463956 -0.22979945 -0.11513042 -0.0214192 -0.023600845 0.20488872 -0.103350654 0.00028810464
-0.029499885 0.06730981 -0.18093634 -0.0015612838 0.07771698 0.0152632445 -0.21223614 -0.06027258
-0.12979512 -0.18105337 -0.0017285086 0.07758229 0.02297836 -0.13708565 0.12776597 -0.0033924992
0.12288921 0.019519774 -0.09088441 -0.0018300924 -0.04615525 -0.19344386 -0.03539844 -0.12294944
-0.10205396 0.12242743 -0.14523806 -0.006934536 -0.08517573 -0.01564041 -0.13274382 -0.043499548
-0.14382519 -0.14427343 0.0378546 -0.07835139 -0.114253156 -0.093936495 -0.0142526645 -0.09434775
-0.12709507 -0.1658675 -0.085069835 -0.19156994 0.016375463 -0.044513308 0.07676596 -0.061026704
