lenet5_models/model_int8_t.tflite (tflite, 67264 bytes, 5 tensors)

sequential/C1/Conv2D i1 [6, 5, 5, 1]
45 -96 67 47 -8 35 -27 69
36 1 -21 83 46 5 48 -127
-70 -87 -16 -87 -24 -121 -50 -96
-6 -66 39 27 2 -27 46 -87
-61 -67 2 -77 -16 -46 31 31
-127 -9 -10 68 -47 -55 -56 42
31 -35 -9 -28 -51 -12 47 -108
-54 -79 -18 -69 -67 54 6 -83
12 50 23 -27 -127 -31 29 39
-9 -33 -44 -8 13 -32 31 -22
-47 44 14 -58 -34 -39 -127 -102
-11 28 -98 19 29 -4 62 6
34 38 7 -78 22 37 17 -26
-55 -6 -9 40 -41 -49 36 9
-5 -37 -49 -13 5 -27 -127 44
-13 -29 -25 -43 -10 4 1 14
38 15 57 -39 40 -49 -2 13
44 -27 37 29 -48 64 -24 -8
64 8 -46 78 -69 -127
00000000: 2da0 432f f823 e545 2401 eb53 2e05 3081
00000010: baa9 f0a9 e887 cea0 fabe 271b 02e5 2ea9
00000020: c3bd 02b3 f0d2 1f1f 81f7 f644 d1c9 c82a
00000030: 1fdd f7e4 cdf4 2f94 cab1 eebb bd36 06ad
00000040: 0c32 17e5 81e1 1d27 f7df d4f8 0de0 1fea
00000050: d12c 0ec6 ded9 819a f51c 9e13 1dfc 3e06
00000060: 2226 07b2 1625 11e6 c9fa f728 d7cf 2409
00000070: fbdb cff3 05e5 812c f3e3 e7d5 f604 010e
00000080: 260f 39d9 28cf fe0d 2ce5 251d d040 e8f8
00000090: 4008 d24e bb81

sequential/C3/Conv2D i1 [16, 5, 5, 6]
-56 100 -56 67 25 -15 -15 28
-48 13 15 32 -54 -86 -4 -50
21 6 15 -33 5 -54 59 14
-1 -21 4 -8 -38 -9 22 64
-50 48 -5 2 -10 -33 -91 -9
-4 62 22 26 -49 -29 14 -9
28 21 -2 -63 29 5 -20 77
-2 62 -101 -6 39 51 15 -60
8 -40 -25 -84 20 9 -32 9
-7 24 90 -57 -56 24 24 48
65 -44 -88 28 -59 18 -27 17
14 -13 44 -55 93 -2 -97 -5
-1 -44 58 -107 -14 -60 -82 -75
14 -32 -37 -44 -25 28 -30 1
-27 -60 -38 63 -16 -68 29 17
-34 -7 -8 10 -67 20 -56 -32
33 -43 -74 -24 -60 -127 -20 -18
60 -23 2 -67 -17 -51 12 24
-12 -31 -19 8 -41 15 -78 -54
-48 -40 -87 -21 -15 2 44 -110
10 5 24 -18 23 -90 7 -56
-3 -8 0 -84 -60 37 -34 90
-114 -38 -23 24 -40 -56 33 -24
-68 -112 -30 -45 -77 -60 -53 -13
4 -55 11 -49 0 10 -58 -64
36 -127 -64 -12 -13 113 -57 0
-16 37 -100 -1 43 8 -117 -33
-72 -100 -1 43 13 -76 71 -2
68 11 -50 -1 -26 -107 -20 -68
-56 68 -80 -4 -47 -9 -73 -24
-79 -80 21 -43 -63 -52 -8 -52
-70 -92 -47 -106 9 -25 42 -34
00000000: c864 c843 19f1 f11c d00d 0f20 caaa fcce
00000010: 1506 0fdf 05ca 3b0e ffeb 04f8 daf7 1640
00000020: ce30 fb02 f6df a5f7 fc3e 161a cfe3 0ef7
00000030: 1c15 fec1 1d05 ec4d fe3e 9bfa 2733 0fc4
00000040: 08d8 e7ac 1409 e009 f918 5ac7 c818 1830
00000050: 41d4 a81c c512 e511 0ef3 2cc9 5dfe 9ffb
00000060: ffd4 3a95 f2c4 aeb5 0ee0 dbd4 e71c e201
00000070: e5c4 da3f f0bc 1d11 def9 f80a bd14 c8e0
00000080: 21d5 b6e8 c481 ecee 3ce9 02bd efcd 0c18
00000090: f4e1 ed08 d70f b2ca d0d8 a9eb f102 2c92
000000a0: 0a05 18ee 17a6 07c8 fdf8 00ac c425 de5a
000000b0: 8eda e918 d8c8 21e8 bc90 e2d3 b3c4 cbf3
000000c0: 04c9 0bcf 000a c6c0 2481 c0f4 f371 c700
000000d0: f025 9cff 2b08 8bdf b89c ff2b 0db4 47fe
000000e0: 440b ceff e695 ecbc c844 b0fc d1f7 b7e8
000000f0: b1b0 15d5 c1cc f8cc baa4 d196 09e7 2ade

sequential/F5/MatMul i1 [120, 400] scale=0.003109777 zero_point=0
0.08707376 -0.10262264 -0.15237908 -0.12750086 0.018658662 -0.06530532 0.05597599 -0.03420755
-0.077744424 0.05597599 -0.031097772 0.031097772 0.003109777 -0.0684151 -0.09640309 -0.07152487
0.018658662 -0.090183534 -0.012439108 -0.12128131 0.031097772 0.05597599 0.0 -0.03420755
-0.018658662 0.027987994 -0.10262264 -0.04353688 -0.049756434 -0.10573242 -0.10262264 -0.006219554
-0.09951287 -0.05286621 -0.09640309 0.059085764 0.06530532 0.024878217 0.015548886 -0.037317324
-0.024878217 -0.12128131 -0.04664666 0.031097772 -0.05597599 0.07463465 0.015548886 -0.04353688
0.07152487 0.024878217 0.062195543 0.006219554 -0.04353688 -0.03420755 0.09329332 -0.10573242
-0.090183534 0.07152487 0.040427104 -0.031097772 -0.08707376 -0.09640309 0.08085421 -0.09329332
-0.037317324 -0.04664666 0.012439108 0.003109777 -0.059085764 -0.06530532 -0.062195543 -0.10262264
-0.09640309 0.0684151 0.049756434 0.062195543 -0.13061064 0.003109777 -0.024878217 -0.015548886
-0.07463465 -0.02176844 0.02176844 -0.06530532 -0.090183534 0.040427104 0.08085421 0.04664666
0.031097772 -0.08085421 0.027987994 -0.090183534 -0.10262264 -0.08396398 0.0 0.077744424
0.077744424 0.02176844 -0.009329331 -0.031097772 0.04353688 -0.12128131 -0.08396398 0.08085421
-0.0684151 0.0684151 0.0684151 0.012439108 -0.04664666 0.012439108 0.08707376 0.009329331
-0.090183534 -0.090183534 -0.03420755 -0.03420755 -0.09329332 -0.05597599 -0.05597599 -0.015548886
-0.040427104 0.06530532 -0.018658662 -0.077744424 -0.05597599 -0.040427104 0.0684151 0.062195543
0.05286621 0.040427104 -0.08085421 0.02176844 -0.08396398 -0.03420755 -0.10262264 0.006219554
-0.08396398 0.02176844 0.07152487 0.05286621 0.07463465 0.024878217 0.059085764 0.037317324
-0.0684151 0.05597599 -0.037317324 0.077744424 0.0 -0.006219554 0.09329332 -0.059085764
-0.049756434 0.04353688 0.077744424 -0.09329332 -0.040427104 0.027987994 0.003109777 0.07463465
-0.090183534 -0.07152487 -0.040427104 -0.003109777 -0.0684151 0.024878217 -0.06530532 -0.012439108
-0.062195543 -0.012439108 0.05597599 -0.05286621 0.08707376 0.02176844 -0.07463465 -0.05286621
-0.08396398 -0.040427104 0.006219554 -0.031097772 0.049756434 0.062195543 0.08085421 -0.018658662
-0.03420755 -0.031097772 -0.037317324 0.006219554 0.04353688 -0.031097772 -0.04664666 -0.059085764
0.015548886 -0.03420755 -0.09640309 -0.07152487 0.024878217 -0.07463465 0.037317324 0.06530532
0.037317324 0.062195543 0.08707376 -0.015548886 -0.040427104 -0.003109777 0.02176844 0.09951287
0.05597599 -0.090183534 -0.12128131 -0.037317324 -0.10262264 0.0684151 -0.009329331 -0.062195543
0.003109777 -0.07152487 0.059085764 0.049756434 -0.018658662 -0.015548886 0.090183534 -0.006219554
-0.024878217 0.003109777 -0.05286621 -0.031097772 0.08396398 -0.05597599 -0.05286621 0.06530532
-0.10262264 0.04353688 0.07152487 -0.07152487 0.031097772 -0.05597599 0.012439108 0.02176844
0.077744424 -0.090183534 -0.015548886 -0.03420755 0.04664666 -0.027987994 -0.059085764 0.015548886
-0.003109777 0.040427104 -0.09640309 0.003109777 0.062195543 -0.1088422 0.07463465 0.059085764
00000000: 1cdf cfd7 06eb 12f5 e712 f60a 01ea e1e9
00000010: 06e3 fcd9 0a12 00f5 fa09 dff2 f0de dffe
00000020: e0ef e113 1508 05f4 f8d9 f10a ee18 05f2
00000030: 1708 1402 f2f5 1ede e317 0df6 e4e1 1ae2
00000040: f4f1 0401 edeb ecdf e116 1014 d601 f8fb
00000050: e8f9 07eb e30d 1a0f 0ae6 09e3 dfe5 0019
00000060: 1907 fdf6 0ed9 e51a ea16 1604 f104 1c03
00000070: e3e3 f5f5 e2ee eefb f315 fae7 eef3 1614
00000080: 110d e607 e5f5 df02 e507 1711 1808 130c
00000090: ea12 f419 00fe 1eed f00e 19e2 f309 0118
000000a0: e3e9 f3ff ea08 ebfc ecfc 12ef 1c07 e8ef
000000b0: e5f3 02f6 1014 1afa f5f6 f402 0ef6 f1ed
000000c0: 05f5 e1e9 08e8 0c15 0c14 1cfb f3ff 0720
000000d0: 12e3 d9f4 df16 fdec 01e9 1310 fafb 1dfe
000000e0: f801 eff6 1bee ef15 df0e 17e9 0aee 0407
000000f0: 19e3 fbf5 0ff7 ed05 ff0d e101 14dd 1813

sequential/F6/MatMul i1 [84, 120] scale=0.0029790385 zero_point=0
-0.10128731 -0.047664616 -0.13703577 -0.04170654 -0.19065847 -0.13405673 0.110224426 -0.09235019
0.035748463 0.08937115 0.053622693 0.065538846 0.14001481 0.24130212 0.056601733 -0.13107769
0.113203466 -0.1698052 0.113203466 -0.12511961 0.08639212 0.0 -0.005958077 0.047664616
-0.08937115 0.1161825 0.08937115 -0.15491 0.110224426 -0.11916154 0.13107769 -0.023832308
0.13405673 -0.16086808 -0.035748463 0.032769423 -0.05958077 0.1459729 0.044685576 0.023832308
0.15491 0.11916154 -0.032769423 0.0 -0.107245386 0.11916154 -0.17278424 0.10128731
-0.08043404 -0.02085327 0.12511961 0.062559806 0.104266346 0.071496926 -0.08341308 0.062559806
-0.113203466 -0.1161825 0.056601733 -0.08341308 0.005958077 -0.14299385 -0.1161825 0.13405673
0.044685576 0.017874232 -0.15491 -0.113203466 0.12809865 -0.077455 -0.029790385 -0.1459729
0.07447597 -0.14299385 -0.014895192 -0.08937115 -0.0387275 0.056601733 0.04170654 0.14895193
0.053622693 -0.035748463 -0.13405673 -0.026811346 0.08341308 -0.19661655 0.047664616 0.071496926
0.062559806 0.1698052 -0.18470038 0.077455 0.12214058 -0.02085327 -0.008937116 -0.0029790385
-0.032769423 0.017874232 0.0 -0.13703577 0.053622693 -0.21746981 0.077455 -0.014895192
-0.12511961 0.02085327 0.0387275 0.1161825 -0.044685576 0.08341308 0.16086808 -0.18767942
-0.20555365 0.053622693 0.09235019 0.07447597 0.08043404 -0.13107769 0.014895192 -0.065538846
0.062559806 -0.02085327 0.13703577 0.34854752 -0.12809865 0.16682616 0.104266346 0.110224426
0.065538846 0.04170654 -0.16086808 0.011916154 0.044685576 0.032769423 0.14001481 -0.13107769
-0.110224426 0.044685576 -0.12511961 -0.017874232 0.04170654 0.071496926 -0.08937115 -0.20853269
0.09532923 0.0 0.0387275 0.12511961 -0.1787423 0.077455 -0.10128731 -0.09830827
-0.13703577 -0.17576328 -0.13107769 -0.21449077 0.14299385 0.16086808 -0.16682616 0.1936375
0.032769423 0.12809865 -0.011916154 0.18470038 0.047664616 0.107245386 0.09532923 -0.044685576
-0.14895193 -0.19959559 -0.05958077 -0.014895192 0.0 -0.029790385 0.053622693 -0.1459729
-0.008937116 -0.053622693 0.05958077 -0.017874232 0.050643656 0.032769423 0.13107769 -0.07447597
0.09235019 -0.15491 0.0029790385 0.050643656 0.04170654 -0.13405673 0.15193096 -0.02085327
-0.026811346 0.09830827 -0.05958077 0.014895192 0.13107769 -0.23832308 -0.05958077 -0.050643656
-0.02085327 -0.27407154 0.05958077 -0.19959559 0.09830827 0.032769423 -0.08639212 -0.0387275
-0.008937116 -0.0387275 -0.1161825 -0.068517886 -0.11916154 0.08639212 0.044685576 0.15193096
0.026811346 0.0 -0.16384712 -0.053622693 -0.12809865 0.13703577 -0.18767942 -0.15491
-0.15193096 0.12214058 -0.053622693 -0.08043404 -0.1698052 0.08043404 0.08639212 0.02085327
-0.008937116 0.17278424 0.02085327 -0.1161825 -0.023832308 -0.032769423 0.05958077 -0.14299385
-0.13703577 -0.12214058 0.08937115 0.032769423 0.12214058 -0.056601733 0.1161825 -0.10128731
-0.08937115 -0.026811346 0.1459729 0.08043404 0.071496926 -0.056601733 0.029790385 0.1459729
00000000: def0 d2f2 c0d3 25e1 0c1e 1216 2f51 13d4
00000010: 26c7 26d6 1d00 fe10 e227 1ecc 25d8 2cf8
00000020: 2dca f40b ec31 0f08 3428 f500 dc28 c622
00000030: e5f9 2a15 2318 e415 dad9 13e4 02d0 d92d
00000040: 0f06 ccda 2be6 f6cf 19d0 fbe2 f313 0e32
00000050: 12f4 d3f7 1cbe 1018 1539 c21a 29f9 fdff
00000060: f506 00d2 12b7 1afb d607 0d27 f11c 36c1
00000070: bb12 1f19 1bd4 05ea 15f9 2e75 d538 2325
00000080: 160e ca04 0f0b 2fd4 db0f d6fa 0e18 e2ba
00000090: 2000 0d2a c41a dedf d2c5 d4b8 3036 c841
000000a0: 0b2b fc3e 1024 20f1 cebd ecfb 00f6 12cf
000000b0: fdee 14fa 110b 2ce7 1fcc 0111 0ed3 33f9
000000c0: f721 ec05 2cb0 ecef f9a4 14bd 210b e3f3
000000d0: fdf3 d9e9 d81d 0f33 0900 c9ee d52e c1cc
000000e0: cd29 eee5 c71b 1d07 fd3a 07d9 f8f5 14d0
000000f0: d2d7 1e0b 29ed 27de e2f7 311b 18ed 0a31

sequential/F7/MatMul i1 [10, 84] scale=0.0034882613 zero_point=0
0.034882613 0.10464784 0.17790133 0.0034882613 -0.034882613 0.10115957 -0.2162722 -0.16046003
-0.12208915 -0.13953045 -0.13255394 0.20580742 0.013953045 -0.038370874 0.017441306 -0.20929568
0.020929568 0.08371827 -0.25813133 0.14650697 0.048835658 -0.29301393 -0.16394828 0.08371827
0.017441306 0.08023001 -0.08371827 -0.041859135 -0.013953045 -0.05930044 -0.010464784 -0.10115957
0.13953045 -0.14301871 0.05232392 -0.038370874 0.14301871 -0.14999524 0.1360422 -0.14301871
-0.09418306 -0.09418306 -0.06627697 0.14650697 -0.07325348 -0.1081361 -0.03139435 -0.02790609
0.21278393 -0.08720653 0.010464784 -0.23720177 -0.02790609 0.048835658 0.23022524 -0.13255394
0.10464784 -0.22673698 0.08371827 0.11511262 0.1534835 -0.1255774 -0.15697175 -0.041859135
-0.017441306 0.048835658 0.13953045 -0.11860088 0.0627887 -0.06627697 -0.024417829 0.16394828
0.010464784 0.1709248 -0.2685961 0.11511262 0.034882613 0.09418306 -0.07325348 0.1360422
0.1534835 -0.09418306 -0.10115957 -0.020929568 -0.0069765225 0.0069765225 -0.21976046 0.14999524
0.05232392 -0.0034882613 0.11511262 -0.12208915 -0.08720653 0.045347396 -0.08371827 0.14999524
0.22324872 -0.19883089 -0.19883089 0.18487784 -0.06627697 -0.19534263 -0.12906566 -0.13953045
-0.11860088 -0.22673698 0.1081361 -0.14301871 -0.0069765225 0.010464784 -0.13953045 0.013953045
-0.13255394 0.14999524 0.03139435 0.11162436 0.16743654 -0.02790609 0.23022524 -0.1534835
0.10115957 -0.12906566 -0.017441306 -0.013953045 0.048835658 -0.010464784 0.1255774 -0.25813133
-0.07325348 0.14301871 -0.09069479 0.017441306 0.020929568 -0.05581218 0.0627887 0.14999524
-0.11162436 0.0069765225 0.03139435 0.07674175 -0.23022524 0.10464784 0.2720844 0.14999524
-0.097671315 0.045347396 -0.16743654 -0.17790133 -0.069765225 0.041859135 -0.23022524 -0.12906566
0.10115957 0.1255774 -0.07325348 0.069765225 0.19534263 0.097671315 -0.1709248 -0.20231915
-0.23720177 0.1081361 0.2162722 -0.18138959 0.069765225 -0.02790609 -0.19185437 -0.069765225
-0.13255394 -0.03139435 0.17790133 0.03139435 0.20231915 0.020929568 -0.034882613 0.11162436
-0.024417829 -0.08023001 -0.024417829 0.12208915 -0.034882613 0.07674175 -0.1360422 -0.13953045
0.08023001 0.18138959 0.045347396 0.069765225 -0.0627887 -0.13953045 0.12906566 0.048835658
0.09069479 -0.1360422 -0.11511262 -0.07325348 0.18487784 -0.017441306 0.20580742 -0.010464784
0.15697175 -0.069765225 0.09069479 -0.1360422 0.0627887 0.11162436 0.19534263 -0.08371827
-0.16394828 0.20929568 -0.05930044 0.048835658 0.11860088 -0.1081361 -0.05930044 0.03139435
-0.18138959 0.13255394 0.17441306 0.034882613 0.1081361 0.14650697 -0.05581218 0.1081361
-0.05232392 -0.013953045 0.05581218 0.11162436 -0.07674175 -0.20231915 -0.1534835 -0.10464784
0.1081361 -0.12906566 -0.09069479 0.13953045 -0.07325348 0.013953045 0.19185437 -0.041859135
-0.0627887 -0.14301871 -0.05581218 -0.18138959 -0.20580742 -0.14301871 0.14999524 0.06627697
0.08720653 -0.12208915 0.1534835 -0.18836612 -0.03139435 -0.09418306 -0.013953045 -0.17441306
00000000: 0a1e 3301 f61d c2d2 ddd8 da3b 04f5 05c4
00000010: 0618 b62a 0eac d118 0517 e8f4 fcef fde3
00000020: 28d7 0ff5 29d5 27d7 e5e5 ed2a ebe1 f7f8
00000030: 3de7 03bc f80e 42da 1ebf 1821 2cdc d3f4
00000040: fb0e 28de 12ed f92f 0331 b321 0a1b eb27
00000050: 2ce5 e3fa fe02 c12b 0fff 21dd e70d e82b
00000060: 40c7 c735 edc8 dbd8 debf 1fd7 fe03 d804
00000070: da2b 0920 30f8 42d4 1ddb fbfc 0efd 24b6
00000080: eb29 e605 06f0 122b e002 0916 be1e 4e2b
00000090: e40d d0cd ec0c bedb 1d24 eb14 381c cfc6
000000a0: bc1f 3ecc 14f8 c9ec daf7 3309 3a06 f620
000000b0: f9e9 f923 f616 d9d8 1734 0d14 eed8 250e
000000c0: 1ad9 dfeb 35fb 3bfd 2dec 1ad9 1220 38e8
000000d0: d13c ef0e 22e1 ef09 cc26 320a 1f2a f01f
000000e0: f1fc 1020 eac6 d4e2 1fdb e628 eb04 37f4
000000f0: eed7 f0cc c5d7 2b13 19dd 2cca f7e5 fcce
